checkpoint/pytorch/model_pytorch.pth (torch, 805959 bytes, 9 tensors)

rnn.weight_ih_l0 f4 [512, 4]
00000000: 4548 1dbd c291 973c bd4d 9abb 43e6 c23d
00000010: 415a 8abc 5cd3 323d 1ce5 2c3c b5ab f7bb
00000020: d4b8 90be 5fa7 19bc b54b 6ebd 2fc5 adbc
00000030: 39ef 9ebd 09b3 c0bc 50f6 33bd 07c1 163c
00000040: b97e cf3b a0ae 2fbd 6680 21bd cff7 b5bc
00000050: 31aa 20bc 8f4f 453d 6f4a 53bc de71 87bd
00000060: 10ff 483d 431e af3d f7c0 9d3c 7534 2fbd
00000070: 428c ba3d 69f1 a2bd 7eee 63bc 31ca 0abd
00000080: 5e51 36be ed9c c6bd 3939 a33d c3ea 96bd
00000090: 91f9 62bd 0d12 87bd e18a ccbd 6edf 3abc
000000a0: 89e6 5c3c a4dc f8bc f5ce 31bd decf ac3c
000000b0: aedb 14be 5cf8 8bbd 5d70 e63c 7b99 8f3d
000000c0: 504f 7dbe 2a67 c9bc 0b00 5e3d 111a b6bb
000000d0: f3e9 673b da74 53bc 4a66 51bd 71af 55bb
000000e0: 3868 063c cdcc 433d b93d af3c 9337 a3b9
000000f0: 16a4 993d f949 fd3c 6f97 e9bc 8189 49bc
00000100: 7325 b8bc 6ca5 473d f544 643d 1349 87bd
00000110: f517 843c aa38 cbbc 340f 9bbd 6ed8 033d
00000120: 0f16 ad3d 2afc 7ebd 6d06 2e3c 2b17 a9bc
00000130: 4e13 2c3d 1d69 863d 452c 8a3b a1bf 763c
00000140: 850c 643d 8c1d 2e3d 864c 78ba 1e5f 42bc
00000150: 785d a4ba bb2a a7bd c5bd 27bd cf5d 1a3c
00000160: 5302 b8bd 8193 bf3d 7e9d 6bbd d862 b1ba
00000170: de98 263d d67d adbd 59e3 c3bd 766d 85bc
00000180: 5f87 ce3b 0d24 b73c 9780 513d 10ab acbc
00000190: 4085 40bc d270 623d c800 35bc f959 2a3c
000001a0: 42f1 5f3c 57b4 95bd 37f5 6a3d 5543 b93d
000001b0: 1e33 c8bc fdd3 6abd 149a afbd 29d4 663c
000001c0: 9586 d63d e75e 6a3d 19ab 513d 47d8 2bbd
000001d0: 4bdb cc3b 3390 68bd 9535 3d3d 8a4f 0d3d
000001e0: c39e c6bd 3ae1 80bd 2d7a 04bc bdd7 893d
000001f0: 51c6 af3c 9d1b 97bc 0ebc 183d a464 e5bc
00000200: b2b6 45bd ae5e 613d fbab 913c b2f7 113d
00000210: 5a91 dd3d 8835 a93d d584 c6bc dbfb ddbd
00000220: d26f 85bd 2d52 053d 0d9a 653c cbd3 aabd
00000230: 7c35 cabc 470b 6f3d a0a3 f5bb 159d 24bd
00000240: 830f e73d edd3 94bd 36a6 473d 49c0 933d
00000250: 210a 06be aedb 993d 12a8 e0bc 5058 253d
00000260: 3ab2 383c 2824 1f3d f77e 163d 487f 74bb
00000270: 3041 1d3e e5ea 43bd 54cf ac3d f613 3dbd
00000280: bcd3 a43d 4424 613d 5b3d 64bd 217d 70bd
00000290: 88fa 4d3e 20f7 25bc 37d9 30bd b4fd 453d
000002a0: 696c 95bd 2bbe 0cbd 3381 7b3c 104d a7bc
000002b0: a2ea eb3d 28d5 543a b681 27bd 5e8d 793d
000002c0: c4d9 fb3c 610a 0abd 1dab 423d dbec a73d
000002d0: 6911 de3d b46e 3e3d d1b9 043d ef1a 363d
000002e0: e9d9 babc 46fa 3d3d 894d 613d ea52 2e3d
000002f0: d606 023c 2e13 59bd 814e 353d 0ee6 523c
00000300: 6969 0b3d 8a8f 813d a47e 03ba b6e5 20bd
00000310: 9e3a dcbd 41e0 62bc 0a36 b8bc 1ab7 c9ba
00000320: e2cc 143d eba6 533d 348a b83c 5324 6d3c
00000330: 0cf0 743d d690 1ebc abf4 04bb f610 3d3a
00000340: a21a d23d ad7a 29bd 78e8 d4bd d544 733c
00000350: b9b1 8ebc 5449 36bd 63b2 8dbd 50c1 0c3d
00000360: 9229 78bc 91bf 593d 611f a5bc f71f 8f3d
00000370: 13a6 85be dbef a33c fce2 303c ea64 e4bc
00000380: 83a2 b93d 2532 a03d beb4 38bc 2918 713c
00000390: 7f4d 043d faca 883a 9538 edbc 57c7 0b3d
000003a0: da70 1bbd f637 ea3c 3b68 05bd 8a3d f0bc
000003b0: f328 893d 53b8 ce3c 2e59 adbd 12f1 31bd
000003c0: a6da 6bbd 391f f2bc 3664 063d 49cb d43b
000003d0: e02e ed3d 5755 313d c8a0 7b3d 9bb2 a4bb
000003e0: 19c8 c23c 9567 153d d7d6 533d e5c2 cf3c
000003f0: 62c7 97bc b4bd 2b3d 177c e7bb 8ed9 48bd
-0.038399 0.01850212 -0.004708974 0.09516575 -0.01688874 0.0436586 0.010552671 -0.007558311
-0.28266013 -0.009378283 -0.05817767 -0.021212189 -0.07760472 -0.02352287 -0.043936074 0.009201295
0.006332245 -0.042891145 -0.03942909 -0.02221289 -0.009806202 0.048171576 -0.012896164 -0.06613515
0.04907137 0.08550694 0.019257052 -0.042774636 0.09108783 -0.079562016 -0.013911841 -0.03388423
-0.17804477 -0.096979 0.07969899 -0.07368996 -0.055413786 -0.0659524 -0.099874265 -0.011405809
0.013482698 -0.030378647 -0.04341026 0.021095213 -0.14536926 -0.0683448 0.02812975 0.07011696
-0.24737287 -0.024585325 0.05419926 -0.0055573066 0.0035387247 -0.012906278 -0.05112294 -0.0032605792
0.008203559 0.047802735 0.021391736 -0.0003113119 0.07502 0.030919062 -0.028514592 -0.01230085
-0.022478795 0.048741743 0.055729825 -0.06605735 0.016124705 -0.024807293 -0.07571259 0.032188825
0.08451473 -0.0622522 0.010621649 -0.02064093 0.042010598 0.065630175 0.004216703 0.015060336
0.055676002 0.042508647 -0.0009471852 -0.011863498 -0.0012540063 -0.08162447 -0.040952463 0.00942178
-0.08984818 0.09354306 -0.057523243 -0.0013533486 0.04067313 -0.08471267 -0.095648475 -0.016287547
0.0063027586 0.022356058 0.051148023 -0.021077663 -0.011750519 0.055283375 -0.01104755 0.010397428
0.01366836 -0.07309788 0.05736276 0.09046046 -0.024438437 -0.057331074 -0.0857431 0.014088669
0.10474888 0.057219412 0.051188562 -0.041954305 0.0062517277 -0.056778144 0.046193678 0.034499682
-0.0969825 -0.062929586 -0.00808577 0.06730602 0.02145687 -0.018445784 0.037288718 -0.02800209
-0.048269935 0.055021934 0.017782202 0.03563661 0.10818739 0.082621634 -0.024233261 -0.10839053
-0.06515469 0.032549072 0.014013779 -0.083411776 -0.024683706 0.058360364 -0.0074963123 -0.040188868
0.112822555 -0.07266984 0.048742495 0.0721441 -0.13089801 0.07512604 -0.027423892 0.040367424
0.011272961 0.03885284 0.036742177 -0.003730731 0.15356898 -0.047831435 0.08437982 -0.046161614
0.080481976 0.054966226 -0.055722576 -0.058713082 0.20115101 -0.01012972 -0.043175902 0.048337653
-0.07296068 -0.034361046 0.015350628 -0.020422488 0.11519362 0.0008118921 -0.040895186 0.060925834
0.030743487 -0.033701304 0.047526468 0.081994735 0.108431645 0.046492293 0.03240377 0.04445928
-0.022808986 0.046381257 0.055005584 0.04255954 0.0079362 -0.052996807 0.04426432 0.012872232
0.034036074 0.06326206 -0.00050161243 -0.03928157 -0.10753368 -0.013847412 -0.022486705 -0.0015389652
0.036328204 0.051672857 0.022526838 0.014473992 0.05979924 -0.009678086 -0.0020287435 0.0007212305
0.10258986 -0.04137676 -0.103959024 0.014847954 -0.01741873 -0.044503525 -0.0691879 0.034364045
-0.01514663 0.053161208 -0.020156564 0.06988519 -0.26103267 0.020011833 0.010796305 -0.02788015
0.090642 0.07822064 -0.011273561 0.014715233 0.03230047 0.0010436468 -0.028957644 0.034125652
-0.03794942 0.028591137 -0.032570105 -0.02932622 0.066972636 0.025234377 -0.08464275 -0.043442793
-0.057581566 -0.029555904 0.032810412 0.00649396 0.11581206 0.043294277 0.06143263 -0.0050261742
0.023777055 0.036475737 0.05171856 0.025361488 -0.01852769 0.041928962 -0.007064353 -0.0490356

rnn.weight_hh_l0 f4 [512, 128]
00000000: 14c9 50bc 22a8 b93d 4a3b d5bc 6077 b93d
00000010: d8a8 a83d 87dc 883c 11a6 b53d 67d2 80bd
00000020: b098 853b 44cb 2ebd e037 3b3d 86b5 0c3b
00000030: 6276 cc3c f354 de3c c4da b0bd 2156 a1bc
00000040: 4855 183d 687c 1a3d 0400 0cbd b568 233d
00000050: a3f7 c63c c9dd 6b3d c77b 3ebd f97c 19bd
00000060: 1511 bd3d e419 4dbd e977 0e3d c20d d5bc
00000070: 8da9 253d a96a 193d 99b6 a3bd 42a0 aabd
00000080: 9769 63bd f7f5 8dbc 3de7 973d 9081 fa3c
00000090: 8c7f eabc a0f7 c63d c096 8cbc 6f4a 443d
000000a0: 99e4 98bd 7a8d 8c3d 4c48 23bd 3e92 393d
000000b0: cf2c 57bd 153e cb3c c9b8 66bd c278 993d
000000c0: df33 9cbd 6439 8fbd 5bf4 583d fc11 2cbd
000000d0: ce00 a5bd 76ac 8d3d a1b8 053d 8e84 823d
000000e0: 3a3f 63bd 0008 4fbb 3b14 80bd 9697 623c
000000f0: 1cb3 8ebd 8671 fd3c 6d43 68bd 7fcd 453d
00000100: 79a5 9abd 1c6c 24bd a3a3 90bd aeb0 96bd
00000110: a4d0 77bc 9c7e 8fbd 778a 8d3d edf7 6e3d
00000120: ad2e 943c 1524 443c ab28 e53c ae99 1bbd
00000130: a935 96bd 1960 e4bc 58d5 60bd 09da a63d
00000140: df9b 983d 906b 863d 1290 3ebd 24b7 a83d
00000150: 6827 893d 4250 913d 7dbd 38bd cbcb 54bd
00000160: b0da 723d c831 44bd 978e b7bd 422a c6bc
00000170: 3394 883d 80d5 5d3c 6c99 503d c190 a1bd
00000180: bada a2bd 319a 5a3d afed fbbc 0251 103b
00000190: b59d 5e3d fe50 ca3c d6c9 07ba 915f 303d
000001a0: 45b4 41bd 6dd3 213d fdf3 953d 20d4 51bd
000001b0: 2954 933d 2d74 133d 543a 043d d6cd 8c3d
000001c0: fd53 7dbd c914 8f3d d815 90bd ba16 523c
000001d0: 6733 d3bc 3363 973d 04fa 2c3d 7048 99bd
000001e0: 2a02 a4bb 3045 1a36 44ca 95bd a117 80bd
000001f0: 0d8c 98bd 6da6 2f3d bd54 913d 41d9 97bd
00000200: 08fc 903d fb66 86bd b997 0d3e eeed 973d
00000210: b72a 8f3d 3f5d 933d 29a4 86bd fe89 2fbc
00000220: e8b6 b5ba f1d0 173d 49f1 b83c c98b 6d3c
00000230: 149c 84bd 1be7 ee3b 0062 003c 35c5 9a3d
00000240: 6d13 863c 0092 14bd 8431 c8bd 01ca 9fbd
00000250: 1649 8e3c 7dc6 bebd f8ef 7c3d be6d 8cbc
00000260: 997c 7a3d a8c0 a1bd 3162 63bd fe0d 053d
00000270: 6b6f bc3d 70cc 573d c4f5 9d3d 788c a5bd
00000280: 5cd2 edbc 7e0b 3f3d 5abe 4b3d d1b3 1cbd
00000290: a3ad a63d 1228 7d3d 623c a43d fd2a 07bd
000002a0: 95fa c83c 61a6 ee3b 61e7 813d 3d71 603d
000002b0: 1393 cabb 8b20 37bc 02a4 1f3c 9401 4d3d
000002c0: 9e0e b2bd f29f b9bd 37b9 0ebd 800d b1bc
000002d0: 8808 8bbd 9c6c fd3b e410 5fbc 0897 fc3d
000002e0: f766 32bd d401 a4bc 0290 05bc a862 a33d
000002f0: 940d cabb f8a0 87bd 24fe ad3d c447 043d
00000300: 799c a8bc f80b 2abd 0f61 803d fa81 a33c
00000310: 4b47 68bd e489 0bbd 40f5 943d 6e42 9b3d
00000320: 1439 35bd 6357 66bd 01e7 79bd c498 a5bd
00000330: 1d51 c2bc 1a22 0b3e 7acc 303d 9f4f 4f3d
00000340: 3d55 7b3d 34b7 6ebd 837a 9cbd e774 cc3c
00000350: e889 f7bc f5f6 fe3c aeea 6cbd 2715 033d
00000360: 24eb ac3d 393a 943b ab27 4abd 02b1 e4bb
00000370: 47df 203d c2e1 b33d cc69 b2bd 9429 b1bd
00000380: 7454 b0bd e43c 023d 8bd9 5d3d 525b 013d
00000390: 5c1a 15bd ebe5 203c 7122 7dbd d52b 173d
000003a0: dc74 533d 1bc6 1c3d bbea a3bc 6d89 9bbd
000003b0: c269 bbbd aad8 c8bd 550d 9b3d 540d 2abd
000003c0: d2fd 433d 697f 893d 52db b23d 7542 bb3c
000003d0: bff9 8dbc 42d9 c6bd 36ac 8cbd d914 813d
000003e0: 26c0 653d f25b a2bd bd4c 863d 8c1e 9c3a
000003f0: aab8 523d 0852 a03d 7c53 a9bd 458e 62bc
-0.012743253 0.09065272 -0.026029248 0.09055972 0.082353294 0.016706718 0.08869565 -0.06290131
0.0040770397 -0.042674318 0.045707583 0.00214705 0.024958793 0.027140116 -0.08635476 -0.01969439
0.037190706 0.0377163 -0.034179702 0.03989478 0.024288004 0.057584558 -0.046504762 -0.0374727
0.09231774 -0.05007352 0.034782324 -0.026007537 0.0404449 0.037455235 -0.07993812 -0.08331348
-0.05552062 -0.0173292 0.07417152 0.030579358 -0.028625272 0.097151995 -0.017161727 0.047922548
-0.074654765 0.06862922 -0.03986387 0.045305483 -0.052532967 0.024809876 -0.05632857 0.07493736
-0.07627081 -0.06993368 0.05296741 -0.04200934 -0.08056794 0.0691766 0.03264678 0.06372939
-0.05548022 -0.0031590462 -0.06253859 0.013830086 -0.06967756 0.030937921 -0.056704927 0.04829168
-0.07551093 -0.040142164 -0.07062461 -0.07357918 -0.015125427 -0.07006571 0.06911176 0.05834191
0.018088663 0.011971493 0.027973494 -0.037988357 -0.073344536 -0.027877854 -0.05489096 0.08147056
0.07451605 0.06563485 -0.046524115 0.08238056 0.06696969 0.07095386 -0.045102585 -0.051952165
0.059290588 -0.047899038 -0.08962744 -0.024190072 0.06668892 0.013539672 0.050927565 -0.07888938
-0.07951875 0.053369705 -0.030752985 0.002202094 0.05434962 0.024696823 -0.0005179917 0.04305989
-0.04729106 0.039508272 0.07321928 -0.05122769 0.07193787 0.035999466 0.03228219 0.068751976
-0.061847676 0.06986386 -0.07035416 0.012822801 -0.025781346 0.073919676 0.04223062 -0.074845195
-0.005005141 2.298806e-06 -0.0731397 -0.06254507 -0.074485876 0.042883325 0.07096241 -0.07414485
0.07079321 -0.06562611 0.13827409 0.07418428 0.06990569 0.0719552 -0.0657428 -0.010714052
-0.0013863714 0.037064496 0.022575991 0.014498659 -0.06475082 0.0072907335 0.007835865 0.075571455
0.016366685 -0.03627205 -0.09775069 -0.07802201 0.017368834 -0.093152024 0.06175229 -0.017142173
0.06115398 -0.078980744 -0.055513564 0.032484047 0.09200939 0.0526852 0.07712892 -0.08083433
-0.029030971 0.04664182 0.04974208 -0.038257424 0.08138587 0.061805792 0.080193296 -0.03299998
0.02453355 0.0072830175 0.0634296 0.054795492 -0.0061820834 -0.011177192 0.009743692 0.050050333
-0.08694194 -0.0906371 -0.034844603 -0.021612883 -0.067887366 0.0077338945 -0.013614867 0.123334944
-0.043555226 -0.020020403 -0.00815201 0.079778016 -0.0061661694 -0.06622499 0.08495739 0.032295004
-0.020582424 -0.04151532 0.062685125 0.019959439 -0.056708615 -0.03406705 0.0727334 0.0758103
-0.044243887 -0.056235682 -0.061011318 -0.08085778 -0.023720318 0.13587227 0.043163754 0.050613042
0.061360586 -0.058280185 -0.07640555 0.024958087 -0.030217126 0.031123618 -0.057840995 0.032002594
0.08443287 0.0045235422 -0.049354237 -0.006979109 0.039275434 0.08783294 -0.087115854 -0.086505085
-0.08609858 0.03179635 0.054162543 0.03158123 -0.03640209 0.009820442 -0.061800424 0.036907036
0.051625118 0.038274866 -0.02000939 -0.07594571 -0.09151031 -0.098069504 0.07570902 -0.041516617
0.047849484 0.06713755 0.08733238 0.022858838 -0.017331002 -0.097094074 -0.06868784 0.063028045
0.05609145 -0.079276934 0.065576054 0.0011910959 0.05144564 0.07828146 -0.082678765 -0.013827865

rnn.bias_ih_l0 f4 [512]
00000000: be6b 66bd 2467 b43d 7d8a d23e 3b28 223d
00000010: 34f2 05bd c011 7abc 13b2 4bbd d23f 89bd
00000020: 6c17 023e 52ac 813d eb67 873b 1579 5dbc
00000030: 4feb 113d 2199 883b 430d b23d d769 e73d
00000040: 6feb d13d 5ab0 b83d 0c94 b13d 7268 9d3c
00000050: 3928 b23d b8c3 5bbd a3c5 cbbc 610a 693d
00000060: 096f 92bb 8907 833d 6d1d 653d 519b 6dbc
00000070: 9437 983d 7e70 7b3d c4db 2cbd 663c afbc
00000080: 49ba 903d 2c00 cfbc 7fca f6bc aa1c 7ebd
00000090: 20f0 023e e255 06bd 3466 f73c b1a7 dd3c
000000a0: a60c babb 8da3 853e 857e 063d ada6 9f3d
000000b0: 680e 32bc 202e c93d a206 cb3d 3fed c43d
000000c0: 977c 213d 7d2e 873d acca a6bd 17b7 9a3d
000000d0: ecd7 9d3d 8845 b63c 1d82 2c3d 096d 8b3e
000000e0: 838b 233e d4a5 b53d 9797 c43d b457 123c
000000f0: b94a 113c 341d da3d dee1 86bd 4663 503c
00000100: d6a6 b33d 5c44 8cbc 2800 c43d 6d0c 0dbd
00000110: 953a bcbc 807f 053d a079 0d3d 71af f4bc
00000120: 764d dc3d 98f5 703d f3e9 953d f2f6 93bb
00000130: 52ef 203d bb93 d23e 8c1d 323e fc8a b03c
00000140: ed73 973c b2cc 283e ffc9 e43d f828 f9bb
00000150: ef62 de3c f8fc 55bd 9d84 bbba 16ae 1e3d
00000160: 9778 1d3c 4636 443b 147f 573d e140 d13d
00000170: 010b c03d 4dbe 89ba f188 a03d c1c4 803d
00000180: 43b6 3c3d 2db8 933d 5551 27bc bb04 2d3c
00000190: 1487 a33d 6bf9 a73b 9c21 053c e0bf 1cbd
000001a0: 623e 843d 3d11 62bc 7024 813d 385f 323d
000001b0: d01b 8f3d 3599 ae3d 39bc f23b 6149 323d
000001c0: 4fa7 b33d 87f8 c03e 544a f8bc da91 31bd
000001d0: f4c7 a8bc b916 433d f234 b43b bd7c 803d
000001e0: cd50 083e d149 483b 9bb4 da3b 4160 d43d
000001f0: 5b61 81bc 3a71 4e3b 60a4 743d fb81 6e3d
00000200: 6b4c 3b3d 528e 48bd d9e3 22be e663 a33d
00000210: df11 a13d a7a2 39bd 9bcb a4bd fba5 3d3d
00000220: 54b8 0d3d f62e 123d 6d1d 8b3d a559 013d
00000230: 921d be3c 8ec1 a5bd 140f aa3d 409a 8abd
00000240: 9164 68bd c9b8 8cbd 98d6 9bbc 6114 393c
00000250: aec9 063c e134 783d 5d17 943c 927f 653d
00000260: 70bb 9c3d aef5 003d c795 96bd 718d 1139
00000270: 3985 813d fcb0 50bd bc04 86bd fb81 b63d
00000280: b611 8dbd 4d0e 0d3d 7a70 813d 73c5 983d
00000290: 5755 94bc 4c37 303d bc48 7abc 64af 67bd
000002a0: 2e45 a53d fe5a a9ba 63fe 513c 1851 f23c
000002b0: 2eaa 9abc 7b19 9ebd f260 943d a606 d03c
000002c0: 2bfd ab3c 5fb8 7b3c 6f97 a9bd d65a a3bd
000002d0: 467c 86bd ca89 1abd 9b1e 8e3d e8e7 36bc
000002e0: effa e2bc e3f3 213d e5a5 363c 5fb7 a6bd
000002f0: 32aa 093d c17e 3c3d 07da 97bc 6c54 973d
00000300: 7ddd 2d3d 25bc b73b 6dc0 81bd 0192 bcbc
00000310: 1eab 2d3d 0455 bfbd 333b 943d 2066 50bd
00000320: 5d6b 96bd f0d7 8e3d 37e7 bdba dfa1 69bd
00000330: 2861 cdba 1f07 35be 12d3 a5bd 5c8b cc3a
00000340: 2b74 efbb 7095 64bd 3bd7 e33c 3c05 48bd
00000350: 33f6 fbbc 14e4 0fbd bc6b 37bc c720 d63c
00000360: 4a56 3fbd a0ac a8bd 7d3e 1dbd 8cd3 573d
00000370: 2f18 a43c 91db 94bd 1b7a 82bc 4d83 93bd
00000380: fbea 73bd f677 ebbc 5e06 873d ed40 b33c
00000390: 0163 963d 1301 5cbd 78f2 493d 74d7 a3bc
000003a0: 01b3 9f3d 7f70 893d 159f 243d 74a1 f63c
000003b0: a9df 313d 2ffb 403d 145a 43bd 6c74 a8bd
000003c0: 5c4d f7bc 2140 0abd e24d 753d c0b1 083d
000003d0: 034d 7cbd 3690 47bd 3ba9 13bd d48b 6e3d
000003e0: 2ea1 733d 7445 11bd b00e 173d 649e 91bd
000003f0: 77fa 0e3d c5d1 13bd 366d 03bd 7b60 b5bd
-0.056255095 0.08808735 0.41121283 0.039589148 -0.032701686 -0.015263021 -0.04973037 -0.06701626
0.12704247 0.063316956 0.004132261 -0.013517638 0.0356248 0.004168645 0.08693936 0.11299484
0.102499835 0.090180114 0.08670816 0.019214842 0.08699078 -0.05365345 -0.024874514 0.056894664
-0.004468803 0.063979216 0.055936266 -0.014502362 0.07432476 0.061386578 -0.042201772 -0.021391105
0.07066781 -0.025268637 -0.030125855 -0.062039055 0.12786913 -0.032796748 0.030200101 0.0270575
-0.0056777773 0.26101342 0.032835502 0.07795463 -0.0108676925 0.09823251 0.099133745 0.096155636
0.03942546 0.06600664 -0.08144125 0.07554453 0.077071995 0.022249952 0.042116273 0.27231625
0.15971188 0.0886952 0.09599226 0.008932043 0.008867913 0.10650101 -0.065860495 0.012718981
0.08772056 -0.01712244 0.09570342 -0.03443568 -0.022977153 0.032592297 0.03453982 -0.029868813
0.10756962 0.058827966 0.07320013 -0.004515522 0.039290734 0.41128334 0.17394084 0.021550648
0.018487895 0.16484335 0.1117134 -0.007603761 0.027146785 -0.052243203 -0.001430649 0.03874024
0.00961127 0.0029939576 0.052611426 0.10217453 0.09377099 -0.0010508985 0.078386195 0.06287528
0.046072256 0.07212863 -0.010212262 0.01056021 0.079847485 0.0051261685 0.008125689 -0.038268924
0.06457211 -0.013798055 0.06305778 0.04354784 0.06987727 0.08525316 0.007407692 0.04352701
0.08772146 0.3768961 -0.03030888 -0.043351986 -0.020603158 0.047629092 0.0054994756 0.06273792
0.13312073 0.0030561576 0.006674362 0.103699215 -0.015793493 0.0031500594 0.059727073 0.058229428
0.045727175 -0.048963852 -0.1590723 0.079780385 0.07864737 -0.045321133 -0.08046647 0.04630087
0.034599617 0.035689317 0.06792722 0.031579632 0.02320746 -0.08093558 0.08303657 -0.06767702
-0.056736533 -0.068711825 -0.019023225 0.011296363 0.008226795 0.060597304 0.018077547 0.056029864
0.07652938 0.0314843 -0.073527865 0.00013880969 0.06324238 -0.050950035 -0.06543872 0.089115106
-0.06888144 0.034437466 0.06320281 0.074595354 -0.0181071 0.043021485 -0.01527613 -0.05656375
0.080698356 -0.0012920795 0.012816998 0.029579684 -0.018879976 -0.07719704 0.07245053 0.025393795
0.020994743 0.015363782 -0.08280837 -0.0797631 -0.06566672 -0.037729062 0.06939431 -0.011163689
-0.027707545 0.03953923 0.011147951 -0.08140444 0.033609577 0.04601932 -0.01853658 0.07389149
0.042447556 0.0056071454 -0.063355304 -0.023018839 0.04239952 -0.09342387 0.07237854 -0.050878644
-0.07344697 0.069747806 -0.0014488463 -0.057039138 -0.0015669214 -0.17678498 -0.08096899 0.0015605497
-0.0073075495 -0.055806577 0.02781259 -0.048833117 -0.030757045 -0.03512962 -0.0111951195 0.026138676
-0.04671315 -0.082360506 -0.03838967 0.05269198 0.020031063 -0.072684415 -0.015927365 -0.07202778
-0.059550267 -0.028743725 0.06593011 0.021881545 0.07343102 -0.053711962 0.0493035 -0.020000197
0.07797814 0.0671091 0.040190775 0.030106284 0.04342619 0.047114547 -0.047693327 -0.08225331
-0.030188255 -0.033752564 0.059888728 0.03337264 -0.06159688 -0.048721515 -0.036050063 0.05823882
0.059479885 -0.035466626 0.03687924 -0.07110289 0.03490683 -0.036088724 -0.032086574 -0.08856293

rnn.bias_hh_l0 f4 [512]
00000000: 69e5 29bd 124f df3d f4b4 b03e 62d1 e73d
00000010: 24fa 3a3d 8f3d fdbc b69d e1bc 0b3d 5d3d
00000020: 655a 8a3d bbe5 103e 1738 84bd 00f6 ce3d
00000030: 403f d83b 3530 e23d ee1e 02bd 5a38 ce3d
00000040: cf37 a73d 4979 56bd cee2 f13d 245e 6e3d
00000050: 59eb 183d d518 ec3d 5e14 e03d 7d63 1d3d
00000060: b508 283d 1c06 fc3c f3d9 e13c c9e1 3bbd
00000070: ee48 ef3d 9350 efbc 0de4 da3c de34 0b3c
00000080: 5f38 7a3d a994 173b 7e9f ec3d e04d 6c3d
00000090: 51b9 803d c6b3 fa3c a68d a53d dc0d 583d
000000a0: 0c04 283d 9494 7e3e fd46 7a3c 6bd6 0fbd
000000b0: 0111 e03c c6a1 a23d b98b 893d a786 123d
000000c0: fdae c83d ced6 47bd d6a9 873d ff98 623c
000000d0: 3e49 333d 07b8 873b 2c86 31bc 5933 a23e
000000e0: 6aaa 1f3e dfe7 843c 1e31 52bd 319b 44bd
000000f0: 8175 b83d 011f 473c 1268 87bc da5c 803d
00000100: e9d4 d93c 3b2f 2cbd 3944 49bd 1236 6e3c
00000110: 707a d53c 968f 3a3a a48f 91bc eb98 3c3d
00000120: 00a5 bb3c 3b8a 123e ef25 b73c d382 943d
00000130: 1660 873d 00a6 ca3e 093f 193e eb24 00bd
00000140: fbf7 f63d 15a2 153e 6f68 683d 5873 b63d
00000150: 40bf be3c 4108 f1bc 875e b2bc dbba 07bc
00000160: 9d20 d2bc 9d44 dfbc db43 4b3c bda4 6cbd
00000170: 60b3 643e fe23 8e3d 77af 9cbd 5e10 f7bc
00000180: dc2d 06bd 258e 243e 9fb4 ca3d 6543 283d
00000190: e480 9e3d 8a77 953d 24a3 643a 5309 4cbd
000001a0: 0d92 573c ab6e 1b3d e4cb ac3c 0750 8d3c
000001b0: 6497 103e f526 873d 6027 f63d fa8e 4c3d
000001c0: 4f13 fb3d 4cfd 983e 05cd b13d 225a bc3d
000001d0: a6cf c33d 76ce 04bd a208 fdbb 79fc 7cbc
000001e0: 14f3 8f3c 328c 233d 24c2 c83d 42de 043d
000001f0: 5df4 eabc 88a1 70bd 4080 29bd 73d9 1b3e
00000200: ccf1 523d 20a2 f6b6 031b 3bbe 7fdd 6c3d
00000210: 9ed6 8a3c 7007 92bd a969 89bd 5601 283c
00000220: e406 183c 2da5 81bd c644 49bc 8938 35bd
00000230: 5c66 5fbd 00cd 963d 74d5 4d3c 8e83 d43c
00000240: 0b25 21bb bbaa e6bc dfb0 233d 8dd4 dbbc
00000250: 153a 273c 9253 e23b cce5 5d3d 21bc dc3c
00000260: 1fd6 533d b9f2 97bb f07e dabc d95a b03c
00000270: d3a1 dc3c 2478 51bb a118 863d 0f4c 503c
00000280: e84e 803d d245 343c a0e4 1ebd 9d4c 4cbd
00000290: 3cb2 403d 9213 033d 004d 1c3c 8fe6 a1bd
000002a0: a770 663d e7cd e2bd 3b56 41bc b2ed 983d
000002b0: 7f06 513b e149 553d 7825 9fbd 705b 39bb
000002c0: 132d 343d c3f9 c93c 267c d03c 2e37 a6bd
000002d0: fa41 5b3d b141 973d 3d2b d13c 8d2b ffbd
000002e0: be0d 95bd 33cb 7c3c 193c b9bd e92a 183d
000002f0: ee8e 98bd c175 253b ad8b 9abd a869 033d
00000300: cbf1 b13c 99c1 69bc a2f7 533c 6351 a2bd
00000310: a11e 533d db13 80bd a5d5 9f3d 566d 533d
00000320: ac21 7dbc 1a39 233d 44e0 f63c 96fc b4bd
00000330: e69c 73bd 3cb3 3ebe 77a2 b0bd f35a 2e3d
00000340: 5541 aa3d 8c75 c6bd 6158 8b3d 0ece 4fbb
00000350: dd61 71bd 2ac2 67ba e1d0 6d3d ff74 753c
00000360: a28b 5e3d d6e8 7cbd 85b9 fa3c 11e1 b83d
00000370: c2ad 3f3d ccff 743d 4684 873d a568 a53d
00000380: b25f fabc c06d 04bd 9f7a 823d c9c0 a53c
00000390: 14e5 8ebd eaa1 aa3d 49cd 6b3d 9b31 57bd
000003a0: cd59 a23d 1bcb 963d 8bd5 8cbd 8e67 9a3d
000003b0: 708a ebbd 8348 a1bc dcf5 9a3b 08fc a6bd
000003c0: e0c7 5dbd 7ae9 06be 64c5 3abd 5059 04b5
000003d0: d0ec e0bc 8876 413d 8ec1 a8bd cf34 863c
000003e0: 36fa ca3c a4a7 2e3d 2458 0fbd e519 223d
000003f0: 0594 a03d dc64 29bd 4913 803d f28f 71bd
-0.04147855 0.10903753 0.34513056 0.113192335 0.04564871 -0.030913142 -0.027541023 0.054013293
0.06755523 0.14150135 -0.06456011 0.101055145 0.006599337 0.11044351 -0.031767778 0.10069342
0.081649415 -0.05236176 0.11810838 0.05819525 0.03733382 0.11528174 0.10941385 0.038424958
0.04102393 0.030764632 0.027569747 -0.045869622 0.11683832 -0.029213225 0.026720071 0.008496491
0.061088916 0.002312938 0.11553858 0.057691455 0.06285346 0.0306033 0.08083658 0.052747592
0.041019484 0.24861366 0.015275714 -0.035116594 0.027351858 0.07941012 0.06716103 0.035772946
0.09799001 -0.048788838 0.066241905 0.013830422 0.04377102 0.004141811 -0.010835212 0.316798
0.15592352 0.016223846 -0.051316373 -0.047999565 0.09006787 0.012153388 -0.016529117 0.0626771
0.026590781 -0.04203723 -0.049137328 0.014539259 0.02605936 0.0007116733 -0.017768688 0.04604427
0.022905827 0.14310543 0.022356955 0.07251515 0.06610124 0.39579773 0.14965452 -0.031285208
0.12059017 0.1461261 0.05674022 0.08908719 0.023284554 -0.029422881 -0.02177359 -0.008284296
-0.025650317 -0.027254397 0.012406315 -0.057774294 0.22334051 0.06940459 -0.07650655 -0.030159172
-0.03275858 0.16069849 0.09897732 0.041079897 0.07739428 0.07298191 0.00087218196 -0.04981358
0.01315738 0.037947338 0.021093316 0.017250074 0.14120251 0.06599227 0.12019229 0.04994104
0.12259542 0.2988075 0.086816825 0.09196879 0.0956109 -0.03242346 -0.0077219764 -0.015441054
0.017571963 0.039928623 0.098026544 0.032438524 -0.028680975 -0.0587478 -0.041382074 0.15219669
0.051500127 -7.350245e-06 -0.18272023 0.057828423 0.01694804 -0.07130325 -0.06709606 0.010254225
0.009278987 -0.06330333 -0.012284463 -0.04424337 -0.054540977 0.073633194 0.012563098 0.025941636
-0.002458873 -0.028157583 0.0399636 -0.02683475 0.010206719 0.006906935 0.05417423 0.026945176
0.051717874 -0.004637089 -0.026671857 0.021527695 0.026932633 -0.0031962479 0.06547666 0.012713446
0.0626505 0.011002975 -0.038792253 -0.04987775 0.047044978 0.032001086 0.009539843 -0.07905304
0.056259777 -0.11074429 -0.011800344 0.07467212 0.003189474 0.05207241 -0.077708185 -0.002828326
0.0439883 0.024655228 0.025449824 -0.081159934 0.053529717 0.073855765 0.025533313 -0.124594785
-0.07278012 0.015429306 -0.09044666 0.037150297 -0.07449137 0.0025247189 -0.07546172 0.032083184
0.021721741 -0.014267349 0.012937458 -0.079256795 0.051542882 -0.06253787 0.07804421 0.051617943
-0.0154499225 0.03984938 0.030136235 -0.088372394 -0.059475802 -0.1862306 -0.08624738 0.042567205
0.08313242 -0.09690389 0.06803966 -0.0031708512 -0.05893122 -0.00088408834 0.05806053 0.014981507
0.054332383 -0.061745487 0.03060604 0.09027303 0.046796568 0.05981426 0.06617026 0.080766
-0.03056321 -0.03233123 0.06371044 0.020233529 -0.06977287 0.08331664 0.057568822 -0.05253754
0.079272844 0.07362958 -0.068766676 0.07539283 -0.11501014 -0.019687897 0.0047290158 -0.0815354
-0.054145694 -0.13175002 -0.045598403 -4.93038e-07 -0.027456671 0.04723218 -0.082400426 0.016382603
0.024777513 0.042640343 -0.034996167 0.039575476 0.078407325 -0.041355953 0.06253678 -0.058975168

rnn.weight_ih_l1 f4 [512, 128]
00000000: 183a 80bd 31f7 933d 4246 413d 30be ad3d
00000010: 9a68 953d def8 8bbd e3ce c73c 4ead 21bd
00000020: 6624 9dbd 16d4 893d 27eb f53c 6b7b 01bd
00000030: 4965 a1bd 3d94 c53d 2f7a 183d 4641 fb3b
00000040: 63e9 f9bd 5033 8dbc 5d70 4a3d 3a99 dc3c
00000050: 0285 543d 6baf b5bc 790b 8e3c 9591 113d
00000060: 2e43 76bb ecb7 80bd 524e 19bc 4aa9 95bc
00000070: b9a6 db3d 7f19 9e3d 5ccd 003d dcee 0fbd
00000080: 70c3 d3bc 1a70 6fbd 8337 c53d 434e d7bd
00000090: a12b 2ebb 12c8 abbc 019d 4fbd 5fcb 0bbd
000000a0: 067d 693c b5ea c03c a08b 5cbd 7983 b83d
000000b0: 4f66 6bbd ada5 23bd 9699 d7bd 8c67 b6bd
000000c0: 1231 dabd 4a04 583b 1fad a63d e246 28bd
000000d0: bc16 6ebd 7f05 933d d56a d3bd bff1 153c
000000e0: 8eb7 6a3d 448b a5bd 5c9f 36bd d5ce 3dbd
000000f0: 8ea4 a9bd 11d8 01bd d4a5 873c e003 89bd
00000100: c1aa c6bd 3ebe d8bd 9287 85bd 19a5 71bd
00000110: 1869 063b 6419 983d 6288 0fbd ed97 923b
00000120: 04bb ea3c 8902 23bd d21e 1bbd e847 6abd
00000130: 3c50 0ebd 0a6c 483b a097 fdbc 6da6 52bc
00000140: 6ba5 2ebc 1d51 2bbd 0551 29bd 64a0 103d
00000150: 3cbe e3bb 45b1 c03d 99e9 8b3d ed71 7fbd
00000160: 9fb2 b33d ea03 293c 787a 2f3d d270 953d
00000170: f32c a03d 3578 32bd 6915 ac3c c532 42bd
00000180: c0da 63bd 6991 12bb 5e5b 2e3d 121a d7bb
00000190: c9a2 5c3d 56eb b9bd 12ca bab7 7f37 a5bd
000001a0: 9579 f8bc e717 a2bd 7fdf 4b3d 2936 be3d
000001b0: fe6a 10bc 4ad3 c1bc 3938 5a3d ccef d0bd
000001c0: 23ec 99bc 2411 363e 5019 023d 1bfb 3b3d
000001d0: 25ea 373d 0076 f83b 8f01 863c 466f 613d
000001e0: ccec 45bc 722e b7bd 2087 8d3d bfdd 123d
000001f0: aa2e 953d 5eed e13c c5f4 1dba 464b 303d
00000200: 2e79 dc3b 34b1 fc3c 6674 663d ae56 883d
00000210: a3b6 69bd 6dd4 0dbd 98e9 823c 47cc 6e3c
00000220: 146a 6fbc 9951 c4ba 0f90 f0bc 59fd f4bc
00000230: 49c6 a9bc 7ce9 8a3c 7c31 853d b2ea 7bbd
00000240: 1090 983a 4257 d8bc b4c9 263d aac9 7f3d
00000250: 3445 96bd ff3c dbbc 6f13 15bd 0f7a e8bc
00000260: 8ec8 e43c 6b62 dcbb f4c0 c0bc 8f3b 5d3d
00000270: 87ea 253d 2641 cfbc 5c76 893d 1dd6 32bd
00000280: ea99 b7bc 5e9b 3e3d 70e5 fd3d ecd0 863d
00000290: fa29 223d 78ed 4abd 28e2 83bd bbf2 70bd
000002a0: b8d6 c63d 3552 49bd 1f01 d73c 4c07 5ebd
000002b0: 9b67 11bd fc34 a73d 31cd 94bd 8913 d0bd
000002c0: 8fdb eb3c d3ac 8fbd 770a df3c 09f4 6fbd
000002d0: 46f0 823d 0711 53bc d709 cdbd 5454 a23d
000002e0: f481 c33b 99f2 373b 85ec 6a3d 0f89 abbc
000002f0: ba67 80bd 2bec 87bb cccc 34bd 3d22 7c3d
00000300: ea2f dbbd 66a3 603d 21bd a03d 8e46 c2bc
00000310: 0c32 78bd 687e 47bd 15ea 943d 3aa9 50bd
00000320: 90b3 e5bd ceea bb3d 7cd1 e9bd dd99 b73c
00000330: f2e0 c6bc 4e92 693d 83e1 da3d afd0 85ba
00000340: ee9c 0ebd afcd 593d ac24 a7bc 0441 cebd
00000350: e5f3 c9bb 5765 413d 3c8e 3fbd a7db f8bc
00000360: d22d 063d a406 b63d a84a 4ebd 7709 acbd
00000370: 9ecf 96ba d191 ff3c 89fe e43c 4f21 42bc
00000380: 2e1f abbc 74d4 473d ef7f 37bd 3e44 2fbd
00000390: 6bc9 8f3c 7e46 283c 42a6 853d ce26 843d
000003a0: 546b b4bd 4a2a e4bd bc20 fd3c e009 a43d
000003b0: a634 bcbd cd5c 42bc ea81 d43d e28d 85bd
000003c0: b7bc 9a3d 3ac9 ef3d cf87 c73d eaa0 c43d
000003d0: 3481 043d 6853 8fbd 5b78 6dbc 92b8 e2bb
000003e0: f6a6 27bd 5c85 95bd 8a76 b33d 64e7 9b3c
000003f0: 8b21 153d 8c6d 87bd 8886 3b3d 31dd 47bd
-0.062610805 0.072248824 0.047186144 0.08483541 0.07295342 -0.06834577 0.024390643 -0.039471917
-0.07672958 0.06729905 0.030019356 -0.03161184 -0.07880647 0.09647415 0.0372259 0.0076676933
-0.12202718 -0.017236382 0.049423564 0.026928533 0.05188466 -0.022178372 0.017339455 0.03553923
-0.0037576663 -0.0628508 -0.009357052 -0.0182692 0.10725159 0.07719707 0.031445846 -0.035139903
-0.025850028 -0.058456518 0.09629729 -0.10512974 -0.0026576298 -0.020969424 -0.05068684 -0.034129497
0.014250999 0.023549417 -0.053844094 0.090094514 -0.057470616 -0.039952923 -0.10527341 -0.08906469
-0.10653891 0.003296154 0.08138489 -0.041083224 -0.05812715 0.07178783 -0.10323111 0.009151875
0.057303958 -0.080832034 -0.04458557 -0.04633983 -0.082833394 -0.031700198 0.016558565 -0.06690192
-0.097005375 -0.10583161 -0.065199986 -0.05899534 0.0020509418 0.07426718 -0.035042174 0.0044736774
0.02865363 -0.03979734 -0.03787119 -0.05719748 -0.034744486 0.0030581974 -0.03095609 -0.012857062
-0.010659556 -0.041825403 -0.041337032 0.03530921 -0.006950168 0.094088115 0.068316646 -0.062364507
0.08774304 0.010315875 0.042841405 0.072969094 0.078210734 -0.04357167 0.021006303 -0.0474117
-0.055628538 -0.0022364503 0.042567603 -0.006564387 0.05386618 -0.0907809 -2.2267024e-05 -0.08067226
-0.030331412 -0.07914715 0.04977369 0.09287674 -0.008814571 -0.02366032 0.053276274 -0.102019876
-0.018789357 0.17779976 0.03176242 0.04589377 0.044901032 0.007582426 0.016358165 0.05503776
-0.012080383 -0.089444056 0.06910539 0.035856005 0.07284291 0.027579006 -0.0006025548 0.043040536
0.006728313 0.030846216 0.05626335 0.06657158 -0.05705894 -0.034626413 0.015980527 0.014575071
-0.014612693 -0.0014977931 -0.029365567 -0.029905962 -0.020724433 0.016957037 0.06503579 -0.06150312
0.0011639614 -0.026408795 0.040719703 0.06244818 -0.07337418 -0.026762484 -0.036395486 -0.028378515
0.027927663 -0.0067255995 -0.023529507 0.054011878 0.040506866 -0.02529962 0.067120284 -0.043661226
-0.02241226 0.04653489 0.12397277 0.065828174 0.039590813 -0.049542874 -0.0643962 -0.058825236
0.09708923 -0.049150664 0.026245652 -0.054206178 -0.035499196 0.08164403 -0.072657 -0.10159976
0.028791217 -0.070153855 0.02722667 -0.05858234 0.06393485 -0.012882478 -0.100116424 0.079262406
0.0059664194 0.0028068183 0.05735447 -0.020939378 -0.06269784 -0.0041480265 -0.044140622 0.06155609
-0.10702498 0.05484333 0.078485735 -0.023715284 -0.060594603 -0.048704535 0.0727121 -0.050942637
-0.112158895 0.09175645 -0.11416909 0.022412235 -0.024277184 0.057024293 0.10687544 -0.0010209287
-0.03481763 0.05317467 -0.020403229 -0.100709945 -0.0061631077 0.047215786 -0.046766505 -0.030378176
0.03275854 0.08887985 -0.050364166 -0.08400243 -0.0011505967 0.03119746 0.027953403 -0.011848762
-0.020888891 0.048786595 -0.04479974 -0.04278969 0.017552098 0.010270713 0.06525852 0.06452714
-0.08809534 -0.111408785 0.030899398 0.08009696 -0.091897294 -0.011862946 0.10376342 -0.065212026
0.07555526 0.11708303 0.097427 0.096010044 0.03234978 -0.0699833 -0.014494027 -0.006918975
-0.04093071 -0.07300827 0.08762844 0.019031234 0.036408942 -0.06612691 0.045782596 -0.04879493

rnn.weight_hh_l1 f4 [512, 128]
00000000: 43a4 9e3d b410 5fbd 440d 0f3a 8bc9 4b3c
00000010: ac57 813c f75b f43c 9e2f 16bd 3734 933d
00000020: cbc5 ebbc 596b 30bd 9872 abbd 7076 4dbd
00000030: dc6d 3b3c a3a4 103d c7bb 96bd 44ad 96bd
00000040: 69cf 763d 0485 0bbd 5c04 db3c c46e 993d
00000050: 8948 36bc 8c1d 913d ac72 bdbd 4711 b43c
00000060: f9cb 99bd 6b2a fcbb 89c3 823c 2cf4 2e3c
00000070: 51ac ca3b 6d20 6bbd a40f 65bd 6ea3 0cbd
00000080: 3555 5a3d 40ef 50bd ebb2 883d 4f06 a1bc
00000090: c09b 98bc 7e81 1c3d ad95 383d 9d58 bc3c
000000a0: 052a 94bc 82f0 c43b e81e 9abd ad19 ae3c
000000b0: af7b 42bc b077 0e3c e7b2 913d 2d1f 7e3d
000000c0: 5b2e 533c 2f39 9b3d 5718 7d3d ce98 253d
000000d0: b349 a0bd c0d2 b2bd 3e00 233d 9863 fd3c
000000e0: 67cd 5f3d cf66 6f3d 78a1 debc d345 21bd
000000f0: 6b46 003b 68d3 693d 0a8b ab3d b5fc 87bc
00000100: 5af3 a93d 2886 52bd e3ee 1abd c0d0 bbbc
00000110: 9f3c 7abc 87f6 693d 411d 81bd 5a53 943c
00000120: 44d3 7bbd 6e0d 34bd 964e 9abc dc2f 8ebc
00000130: e28b 8f3d 16cf ec3c 4d5b 4bbd 4efa 5dbd
00000140: 1f7b f33c 0920 8d3d 253f 55bd ee26 903c
00000150: e3b0 b23c 6ef2 e53b 5ef4 3b3d 5ece 253c
00000160: 5171 8bbd 0513 4abd 3dcc 953d 54a2 64bc
00000170: f8eb 773d 5282 a4bc 1009 a53c d2c1 80bd
00000180: 89e1 5fbd 42ac 783d ac9e 53bd b93b b9bd
00000190: 4816 81bc 5079 433d 71df 6bbd f42a 15bd
000001a0: 38a1 bebd 018e 52bd b950 3fbd fbb4 443d
000001b0: f0c5 61bd d497 b3bd 74ed 043d 7744 a4bd
000001c0: 10b5 89bd 69a8 41bd eaa9 78bd d0f1 11bd
000001d0: 910f a33d 8a2d bd3b 714f a73a f427 593d
000001e0: 9144 803d 0a00 1e3d af2b 673c a57f c3bc
000001f0: 31a6 0ebc f0aa b03c 9c79 be3d 8498 cf3d
00000200: 6459 8a3d ff0c 923d b843 cdbc d6fc 9a3d
00000210: 6bcc 8ebc d1d9 a73d 2c91 853c a880 243d
00000220: f4e3 5abd 38ec 28bc 1706 16ba 795c b5bc
00000230: 071e f1bc c258 8a3c e726 153d 96d5 a03c
00000240: 4963 20bd 0bb7 8f3d 0ee3 cfbd 7c7f 1a3d
00000250: ce0e 8e3d 9ca7 8a3c f986 363d fbf6 963d
00000260: 6ae7 2abb f902 e43b fd79 c43c 1c9c 52bd
00000270: 821c 42bd a398 903d fbba 803d 8397 99bd
00000280: 1924 173d ee75 093d f3dc a13b 18e9 5e3d
00000290: 66c6 f63c 891c 983a 7235 63bc 5dbc 333c
000002a0: f83a 853d 014a bf3d d057 44bd 9482 06bd
000002b0: a50c 92bd b364 df3c 8512 a33c ee32 35bd
000002c0: b6e4 ad3d 0c04 12bd e0ea 7cbd b6cb 283d
000002d0: c57e 36bc 9c37 59bc bec0 7abc 615b ab3d
000002e0: b8d7 83bd cb49 21bd ae24 f0bc cecb 0fbd
000002f0: b012 a4bc ca0c d23c f6bf 72bd 4f33 cdbc
00000300: 4ec7 3a3d b305 83bd f6f6 20bd 7c51 5abc
00000310: 4f35 82bd 6926 803d 0b0a 1cbd 0de9 2dbd
00000320: ec67 43bd 593d c6bd 38b0 6abd f390 8dbd
00000330: ecfa 9d3d baa5 823d d2af bb3d 3945 cebc
00000340: 5a79 9d3d 6586 833d d6a7 9c3d 095a a1bd
00000350: 954f 9c3d e1f4 a4bd 0e21 923d 5611 573d
00000360: cf54 813d a17b 3dbd ecda 853c be5a ecba
00000370: 2da7 d7ba c1bd 1ebd 6e8e a83b 0b5e ad3d
00000380: 6436 b53a dc86 a63c 872e a7bd e2a0 aa3d
00000390: 7dd9 7cbb deed 59bd 6785 2dbd 400f a13c
000003a0: ac37 8cbd 6c2d 50bc c3da 89bd e494 29bc
000003b0: b067 753d 265c 65bd 60f1 733d 83ba 8a3c
000003c0: 818b c43d 03fe 8f3d fc8d 8ebd e4f7 913d
000003d0: ec3b 943d 1fcf d0bd ab57 eb3c a1a6 88bd
000003e0: 4711 1e3d 7592 353d a941 8c3d 401f a9bd
000003f0: 1bba a0bd 0c7d cf3a 0ad4 353d 90ab d0bc
0.07746174 -0.05445929 0.0005456994 0.012438188 0.015788876 0.029829009 -0.036666505 0.071876936
-0.028780838 -0.043071125 -0.083714664 -0.05016178 0.011439767 0.03531326 -0.073600344 -0.073572665
0.060256395 -0.0340624 0.026735477 0.0749183 -0.011125692 0.07085714 -0.092503875 0.021980895
-0.07509608 -0.0076954863 0.015962379 0.010678332 0.0061850925 -0.05740397 -0.05592312 -0.034335546
0.053303916 -0.051009417 0.06674751 -0.019656328 -0.018628955 0.03820943 0.045064617 0.022991473
-0.018086443 0.006010116 -0.07525426 0.021252478 -0.011870309 0.008695528 0.07114201 0.06204145
0.01288947 0.07579266 0.06179079 0.04042893 -0.07826557 -0.087316036 0.039795153 0.030931279
0.054639246 0.058447655 -0.027176604 -0.03937323 0.0019573222 0.05708638 0.08376129 -0.016599992
0.08298369 -0.051397473 -0.037825476 -0.022926688 -0.015273242 0.057119872 -0.06304408 0.018106151
-0.061480775 -0.04395812 -0.0188363 -0.017356806 0.070091024 0.02890734 -0.049647618 -0.054193787
0.029721795 0.06890876 -0.052062172 0.017596688 0.021812862 0.0070174253 0.045887344 0.010120003
-0.06808723 -0.049334545 0.07314346 -0.013954718 0.06052777 -0.020081673 0.020145923 -0.06286968
-0.054658446 0.060711153 -0.051664993 -0.09044594 -0.015757695 0.047723114 -0.057586137 -0.036417916
-0.09308094 -0.051404957 -0.046707842 0.04802416 -0.05512041 -0.08769193 0.032453015 -0.08020871
-0.06723988 -0.04727975 -0.060708918 -0.035631 0.079619534 0.005773251 0.0012764764 0.053016618
0.06263078 0.038574256 0.014109536 -0.023864577 -0.008706615 0.021565884 0.09300539 0.10136512
0.06755331 0.07131385 -0.025056705 0.07567756 -0.017431458 0.08195842 0.016304575 0.04016176
-0.05344005 -0.010310225 -0.00057229534 -0.022138821 -0.029433263 0.016888026 0.036414053 0.019633096
-0.039157186 0.070173346 -0.10150729 0.037719235 0.069364175 0.016925626 0.044562314 0.073713265
-0.0026077875 0.006958362 0.02398395 -0.05141841 -0.04739047 0.07060363 0.06285664 -0.07499602
0.03689966 0.033559732 0.0049396693 0.054421514 0.0301239 0.0011605184 -0.013867723 0.010970202
0.06505388 0.09340287 -0.047935307 -0.032839373 -0.07131318 0.027269697 0.019906292 -0.044238023
0.08490889 -0.03564839 -0.06174743 0.0412099 -0.011138623 -0.013257887 -0.015304742 0.083670385
-0.064376295 -0.039377015 -0.029314365 -0.035106473 -0.020028442 0.025640864 -0.0592651 -0.02504888
0.045600228 -0.063975714 -0.03929802 -0.013325091 -0.06357824 0.06257326 -0.038095515 -0.042458583
-0.04770653 -0.0967967 -0.05729696 -0.069124125 0.07713875 0.06379266 0.091643944 -0.025179492
0.076891616 0.06422118 0.076492 -0.07878501 0.076323666 -0.080545194 0.07135211 0.052506767
0.06315004 -0.04626048 0.016339742 -0.0018032414 -0.001645302 -0.038755182 0.005143932 0.08465203
0.0013825414 0.020327978 -0.08163171 0.08331467 -0.0038581782 -0.053205363 -0.04236355 0.019660592
-0.06846556 -0.012706142 -0.067311786 -0.01035044 0.059913337 -0.055996083 0.059556365 0.016934639
0.09596921 0.07030871 -0.06960675 0.071273595 0.07237992 -0.10195755 0.028728327 -0.06672407
0.038590696 0.044329125 0.06848461 -0.082579136 -0.07847997 0.0015830114 0.04439167 -0.025472432

rnn.bias_ih_l1 f4 [512]
00000000: ad6a 05bc 26fa 133d 7a1d 6ebc b03c dc3d
00000010: 9fcd 013e 7d87 a33d b038 a9bc 9150 ad3c
00000020: 9fa7 22bc 742a 413d bc8f 263a 3d62 a93d
00000030: 7583 373d 8c4a e63d bd37 9d3d c462 c93b
00000040: 4fa6 193d bbbb 013e 0bf0 803e 528e 133c
00000050: b529 8d3c 9fc6 93bc 35c6 0f3c 092a aa3c
00000060: 651c 5dbd 7973 eb3d 321f 943c 24cf 843d
00000070: 2175 843d 887e d8bc 0d8b 0a3e ed1f 103d
00000080: 438a 07bd 22b3 a33c 206c 323d 9d88 00bd
00000090: 5451 55bd 300f 863d 9cf1 8c3c 1147 e53d
000000a0: 1134 323e 260a 0e3e 1b64 943d e8d9 79bd
000000b0: 6024 e2bc 38b4 213d 7acf 52bc c754 28bd
000000c0: fa86 9d3c d528 41bd 9daa 163e 4b3c 6fbd
000000d0: 61b0 9dbc 014e bebc a864 9bbc 8027 f93d
000000e0: cc05 b3bc b4d8 d43d a6a9 2b3e e27a ca3d
000000f0: fdb0 9d3c 777a 2cbd 4fd9 abbc 4409 a13d
00000100: cf82 9ebc 6772 5e3c 9f69 70bd b5de 21bc
00000110: 94de 84bd 3d6b 773c ff6c e43d 7bcf 8a3b
00000120: fb5d ee3d fef4 0dbd 5636 cabc 0a5a 413d
00000130: 5e62 c43d f987 a03d ea93 603d ee53 95bc
00000140: 23f5 61bc 3cea f83d 6b83 30bd 62e9 bb3d
00000150: 457a 3a3d 51ac d73d f955 c33d bd05 f4bc
00000160: 900d 2dbd e100 343b f83d 083d 040d e93d
00000170: c53b 363c ea23 f13d 612d c83d 2a9c 9ebc
00000180: 3e65 113b 7eda 07bc 500a 683d def3 783d
00000190: cb0f 033d 7bd8 af3c 93a6 0f3d 3c96 0cbd
000001a0: 0483 ee3d 3ed2 df3d bc4d 573d 1779 d83c
000001b0: 4630 95bc 8879 7a3d 9b59 de3d e7a5 f93c
000001c0: febe d23d 5475 053e de42 863d cfe7 483e
000001d0: 806f c23d f141 523e ac42 56bd 2b2e 923d
000001e0: c0a6 b73c ce47 9e3d 75cd bb3c df5f b03d
000001f0: 2eba cc3c 58a4 3e3e 6de2 ae3d 5d0e 4f3d
00000200: 3765 703d 9f4d a43d 7f8e ee3c 645a 363d
00000210: 88be 4f3d 79d6 8abd 16ee ad3c a5bb f63c
00000220: 0a60 ae3d dcba d3bc 2763 a73c 1ff1 66bd
00000230: a111 ab3d f5c6 833d 13fd fcbc 523a a23c
00000240: de3d a0bd 18a9 b43c 8d60 7abd be08 4b3d
00000250: f779 babd 2d81 13bd 9f80 d43c 207b 623c
00000260: ac03 8fbd ab65 4bbd 9602 fab9 e1c9 033d
00000270: 4053 82bd bc22 57bd 1b0b a83b a3c5 38bd
00000280: b712 42bb 0af4 bd3d 8ba6 57bd b0ba 97bd
00000290: e9f5 bf3d c7f0 57bb bec9 b23d ba3f 92bd
000002a0: f30a eebd 1f90 01be 970d 16bd 5c4c 64bc
000002b0: 3f89 883d 4f43 30bd bfba 99bd aa4a 773d
000002c0: 44fe 9f3c bfa2 173d 8c3d 72bc e78a ac3d
000002d0: 8c55 1e3d c71f 543d 5219 013d 06ff 8b3d
000002e0: ddc4 44bd 3969 8a3d 78e6 b13b 5914 42bd
000002f0: 99d6 113d 733d 0ebb 05d4 a1bd 7ff4 383d
00000300: cea5 853d 34ac 75bd 2c5d 05bd 276d a83d
00000310: a3c8 043d da40 8abd 8878 8ebd f28a b03c
00000320: 88f7 adbb 796e a53d 725d 1abd cf7e 663d
00000330: 5bb4 b43c e642 58bd c844 6ebd 1f5f 05bd
00000340: 19c5 0bbd ee23 b7bc f3f5 ad3d cf76 823d
00000350: 6cc9 bc3c 4c52 113d 62d9 9bbd 9449 1cbd
00000360: 2530 cabb e001 f33a fa80 ac3c d447 2fbd
00000370: 4a66 6f3d e2f7 cebd 17e7 3d3c db1e c23d
00000380: d0cf f23b 139b f3bc 5c68 f2bc ca0b c23c
00000390: 80c3 02bd 5293 55bd f911 913d cf18 bc3d
000003a0: bb48 6b3a 5f9c 8bbc d0d3 e4bc 992a a4bd
000003b0: c51c d53c 994e b6bc 3776 833d b804 9bbd
000003c0: 6e72 b8bc a2f5 323d 7421 4dbc c6c8 743d
000003d0: 1f64 163d 69ee 063d 6679 7dbd ab0a ffbc
000003e0: 939b 26bd e21c 333d 1762 79bc eda0 d83b
000003f0: 7240 c63c 1af0 11bd 9262 a8bc defd 0c3d
-0.008143109 0.036127232 -0.014533395 0.10753763 0.12676094 0.07984827 -0.020656914 0.021156581
-0.009927659 0.047159627 0.00063538156 0.082706906 0.0448031 0.112446874 0.07676647 0.006145807
0.03751212 0.1266927 0.25183138 0.0090061 0.017231802 -0.018039046 0.008775284 0.020771997
-0.053982157 0.11496634 0.018081281 0.064848214 0.06467653 -0.026427522 0.13529606 0.035186697
-0.03309084 0.019982878 0.043560147 -0.031380285 -0.052079514 0.065458655 0.017205052 0.111951955
0.17402674 0.13871059 0.07245656 -0.060998827 -0.027605236 0.03947851 -0.012866849 -0.041096475
0.0192294 -0.04715808 0.14713521 -0.05840711 -0.019249143 -0.023230555 -0.018968895 0.12165737
-0.02185335 0.10392895 0.16763934 0.09886719 0.019249434 -0.04210898 -0.020977644 0.078630954
-0.019349484 0.01357708 -0.058694478 -0.009879758 -0.06487766 0.015101251 0.11153602 0.0042361594
0.11639019 -0.03465747 -0.024684113 0.04720501 0.095890746 0.07838435 0.05482856 -0.018228497
-0.013791355 0.12154052 -0.04309408 0.091753736 0.04552676 0.105309136 0.09537882 -0.029787892
-0.042249262 0.0027466344 0.033262223 0.11379436 0.011122649 0.11774428 0.0977428 -0.019361574
0.002218559 -0.008291839 0.05665046 0.060779445 0.031997483 0.02146553 0.035070967 -0.034322962
0.11646083 0.109287724 0.052564368 0.026424928 -0.018211495 0.061151057 0.10856935 0.030474616
0.10290335 0.13033038 0.06555723 0.19619678 0.09493923 0.20532967 -0.052309677 0.07137712
0.02241838 0.077285394 0.022925118 0.08612036 0.024991121 0.1861738 0.08539281 0.050550807
0.058690276 0.080226175 0.029120682 0.044519797 0.050718814 -0.06779189 0.021231692 0.030118773
0.08514412 -0.025845937 0.020433022 -0.056382295 0.08352972 0.064344324 -0.030882394 0.0198032
-0.078243 0.022053286 -0.061127234 0.049568884 -0.09105294 -0.036011863 0.025940238 0.013823301
-0.06983122 -0.049657505 -0.00047685642 0.03217495 -0.06363535 -0.05252336 0.005128277 -0.045110356
-0.0029613206 0.092750624 -0.052649062 -0.07408655 0.093730755 -0.003294991 0.087298855 -0.07141061
-0.11623182 -0.12652634 -0.036634054 -0.013934221 0.066668026 -0.04303294 -0.07506322 0.06037394
0.019530423 0.03702044 -0.014785182 0.08424931 0.038655803 0.051788118 0.031518288 0.06835751
-0.048039306 0.06758351 0.0054290853 -0.047382686 0.035605047 -0.0021704107 -0.07901768 0.045155045
0.06525765 -0.05997868 -0.03255956 0.08223944 0.032417905 -0.06750651 -0.06956583 0.02155063
-0.005309049 0.080777116 -0.037686773 0.056273278 0.022058656 -0.052798174 -0.058171064 -0.032561418
-0.034123514 -0.022356 0.08494177 0.06370317 0.023045264 0.035478875 -0.07609822 -0.038156107
-0.00617029 0.0018539988 0.021057595 -0.04279311 0.05844716 -0.10105874 0.011590741 0.094785415
0.007410027 -0.029737031 -0.029590778 0.023687262 -0.031924725 -0.05214245 0.07083506 0.09184419
0.0008975376 -0.017042337 -0.027933031 -0.08015937 0.026014695 -0.022254275 0.06419032 -0.075692594
-0.022515502 0.043691285 -0.012520183 0.059761785 0.036716577 0.03294221 -0.061883353 -0.031133017
-0.04067571 0.043728717 -0.01522114 0.0066109807 0.024200652 -0.03562937 -0.020554814 0.034421794
